…
            "decoder.1.norm3.weight": 128,
            "decoder.1.norm3.bias": 128,
            "generator.linear.weight": 4224,
            "generator.linear.bias": 33
        },
        "model_params": {
            "src_vocab_size": 36,
            "tgt_vocab_size": 33,
            "encoder_layers": 2,
            "decoder_layers": 2,
            "d_model": 128,
            "d_ff": 512,
            "encoder_heads": 4,
            "decoder_heads": 4,
            "dropout": 0.15,
            "max_len": 32
        },
        "structure": "Transformer(\n  (src_embed): Sequential(\n    (0): Embeddings(\n      (lut): Embedding(36, 128)\n    )\n    (1): PositionalEncoding(\n      (dropout): Dropout(p=0.15, inplace=False)\n    )\n  )\n  (tgt_embed): Sequential(\n    (0): Embeddings(\n      (lut): Embedding(33, 128)\n    )\n    (1): PositionalEncoding(\n      (dropout): Dropout(p=0.15, inplace=False)\n    )\n  )\n  (encoder): ModuleList(\n    (0-1): 2 x EncoderTransformerBlock(\n      (attn): MultiHeadedAttention(\n        (linears): ModuleList(\n          (0-3): 4 x Linear(in_features=128, out_features=128, bias=True)\n        )\n        (dropout): Dropout(p=0.15, inplace=False)\n      )\n      (ffn): PositionWiseFeedForward(\n        (linear1): Linear(in_features=128, out_features=512, bias=True)\n        (dropout): Dropout(p=0.15, inplace=False)\n        (linear2): Linear(in_features=512, out_features=128, bias=True)\n      )\n      (norm1): LayerNorm((128,), eps=1e-05, elementwise_affine=True)\n      (norm2): LayerNorm((128,), eps=1e-05, elementwise_affine=True)\n      (dropout): Dropout(p=0.15, inplace=False)\n    )\n  )\n  (decoder): ModuleList(\n    (0-1): 2 x DecoderTransformerBlock(\n      (self_attn): MultiHeadedAttention(\n        (linears): ModuleList(\n          (0-3): 4 x Linear(in_features=128, out_features=128, bias=True)\n        )\n        (dropout): Dropout(p=0.15, inplace=False)\n      )\n      (src_attn): MultiHeadedAttention(\n        (linears): ModuleList(\n          (0-3): 4 x Linear(in_features=128, out_features=128, bias=True)\n        )\n        (dropout): Dropout(p=0.15, inplace=False)\n      )\n      (ffn): PositionWiseFeedForward(\n        (linear1): Linear(in_features=128, out_features=512, bias=True)\n        (dropout): Dropout(p=0.15, inplace=False)\n        (linear2): Linear(in_features=512, out_features=128, bias=True)\n      )\n      (norm1): LayerNorm((128,), eps=1e-05, elementwise_affine=True)\n      (norm2): LayerNorm((128,), eps=1e-05, elementwise_affine=True)\n      (norm3): LayerNorm((128,), eps=1e-05, elementwise_affine=True)\n      (dropout): Dropout(p=0.15, inplace=False)\n    )\n  )\n  (generator): Generator(\n    (linear): Linear(in_features=128, out_features=33, bias=True)\n    (softmax): Softmax(dim=-1)\n  )\n)"
    },
    "training_config": {
        "early_stopping": {
            "enabled": true,
            "patience": 7,
            "min_delta": 0.005
        },
        "save_dir": "models/saved",
        "save_strategy": "epoch",
        "save_total_limit": 5,
        "dataset_name": "multi30k",
        "encoder_layers": 2,
…
