…
            "decoder.3.norm3.weight": 256,
            "decoder.3.norm3.bias": 256,
            "generator.linear.weight": 8448,
            "generator.linear.bias": 33
        },
        "model_params": {
            "src_vocab_size": 36,
            "tgt_vocab_size": 33,
            "encoder_layers": 4,
            "decoder_layers": 4,
            "d_model": 256,
            "d_ff": 1024,
            "encoder_heads": 8,
            "decoder_heads": 8,
            "dropout": 0.15,
            "max_len": 64
        },
        "structure": "Transformer(\n  (src_embed): Sequential(\n    (0): Embeddings(\n      (lut): Embedding(36, 256)\n    )\n    (1): PositionalEncoding(\n      (dropout): Dropout(p=0.15, inplace=False)\n    )\n  )\n  (tgt_embed): Sequential(\n    (0): Embeddings(\n      (lut): Embedding(33, 256)\n    )\n    (1): PositionalEncoding(\n      (dropout): Dropout(p=0.15, inplace=False)\n    )\n  )\n  (encoder): ModuleList(\n    (0-3): 4 x EncoderTransformerBlock(\n      (attn): MultiHeadedAttention(\n        (linears): ModuleList(\n          (0-3): 4 x Linear(in_features=256, out_features=256, bias=True)\n        )\n        (dropout): Dropout(p=0.15, inplace=False)\n      )\n      (ffn): PositionWiseFeedForward(\n        (linear1): Linear(in_features=256, out_features=1024, bias=True)\n        (dropout): Dropout(p=0.15, inplace=False)\n        (linear2): Linear(in_features=1024, out_features=256, bias=True)\n      )\n      (norm1): LayerNorm((256,), eps=1e-05, elementwise_affine=True)\n      (norm2): LayerNorm((256,), eps=1e-05, elementwise_affine=True)\n      (dropout): Dropout(p=0.15, inplace=False)\n    )\n  )\n  (decoder): ModuleList(\n    (0-3): 4 x DecoderTransformerBlock(\n      (self_attn): MultiHeadedAttention(\n        (linears): ModuleList(\n          (0-3): 4 x Linear(in_features=256, out_features=256, bias=True)\n        )\n        (dropout): Dropout(p=0.15, inplace=False)\n      )\n      (src_attn): MultiHeadedAttention(\n        (linears): ModuleList(\n          (0-3): 4 x Linear(in_features=256, out_features=256, bias=True)\n        )\n        (dropout): Dropout(p=0.15, inplace=False)\n      )\n      (ffn): PositionWiseFeedForward(\n        (linear1): Linear(in_features=256, out_features=1024, bias=True)\n        (dropout): Dropout(p=0.15, inplace=False)\n        (linear2): Linear(in_features=1024, out_features=256, bias=True)\n      )\n      (norm1): LayerNorm((256,), eps=1e-05, elementwise_affine=True)\n      (norm2): LayerNorm((256,), eps=1e-05, elementwise_affine=True)\n      (norm3): LayerNorm((256,), eps=1e-05, elementwise_affine=True)\n      (dropout): Dropout(p=0.15, inplace=False)\n    )\n  )\n  (generator): Generator(\n    (linear): Linear(in_features=256, out_features=33, bias=True)\n    (softmax): Softmax(dim=-1)\n  )\n)"
    },
    "training_config": {
        "learning_rate": 0.0003,
        "weight_decay": 0.1,
        "warmup_ratio": 0.06,
        "max_grad_norm": 0.5,
        "gradient_accumulation_steps": 4,
        "mixed_precision": true,
        "early_stopping": {
            "enabled": true,
            "patience": 7,
            "min_delta": 0.005
…
